ModuleList(
  (0): Linear(in_features=2, out_features=8, bias=True)
  (1): Linear(in_features=8, out_features=8, bias=True)
  (2): Linear(in_features=12, out_features=8, bias=True)
  (3): Linear(in_features=19, out_features=2, bias=True)
)
ModuleList(
  (0): BatchNorm1d(8, eps=1e-05, momentum=0.1, affine=True, track_running_stats=True)
  (1): BatchNorm1d(8, eps=1e-05, momentum=0.1, affine=True, track_running_stats=True)
  (2): BatchNorm1d(8, eps=1e-05, momentum=0.1, affine=True, track_running_stats=True)
)
2020-04-24 02:22:59.213131
ModuleList(
  (0): Linear(in_features=2, out_features=8, bias=True)
  (1): Linear(in_features=8, out_features=8, bias=True)
  (2): Linear(in_features=14, out_features=8, bias=True)
  (3): Linear(in_features=19, out_features=2, bias=True)
)
ModuleList(
  (0): BatchNorm1d(8, eps=1e-05, momentum=0.1, affine=True, track_running_stats=True)
  (1): BatchNorm1d(8, eps=1e-05, momentum=0.1, affine=True, track_running_stats=True)
  (2): BatchNorm1d(14, eps=1e-05, momentum=0.1, affine=True, track_running_stats=True)
)
2020-04-24 02:27:08.486074
ModuleList(
  (0): Linear(in_features=2, out_features=8, bias=True)
  (1): Linear(in_features=8, out_features=8, bias=True)
  (2): Linear(in_features=12, out_features=8, bias=True)
  (3): Linear(in_features=17, out_features=2, bias=True)
)
ModuleList(
  (0): BatchNorm1d(8, eps=1e-05, momentum=0.1, affine=True, track_running_stats=True)
  (1): BatchNorm1d(8, eps=1e-05, momentum=0.1, affine=True, track_running_stats=True)
  (2): BatchNorm1d(12, eps=1e-05, momentum=0.1, affine=True, track_running_stats=True)
)
2020-04-24 02:32:57.308864
Train Accuracy after epoch 1 ,86.04166666666667
Train Accuracy after epoch 2 ,98.65
Train Accuracy after epoch 3 ,98.92666666666666
Train Accuracy after epoch 4 ,98.95666666666666
Train Accuracy after epoch 5 ,99.145
Train Accuracy after epoch 6 ,99.055
Train Accuracy after epoch 7 ,99.24333333333334
Train Accuracy after epoch 8 ,99.18666666666667
…
